…
ps://localhost:8080/"},"id":"TH8vlfnpc-Lw","executionInfo":{"status":"ok","timestamp":1686067509998,"user_tz":-330,"elapsed":20,"user":{"displayName":"ARVIND SUBHASH","userId":"05578457616717232707"}},"outputId":"53286318-7459-44b5-b87c-dcbdd5e102bf"},"execution_count":null,"outputs":[{"output_type":"stream","name":"stdout","text":["Model: \"sequential\"\n","_________________________________________________________________\n"," Layer (type)                Output Shape              Param #   \n","=================================================================\n"," conv2d (Conv2D)             (None, 254, 254, 32)      896       \n","                                                                 \n"," batch_normalization (BatchN  (None, 254, 254, 32)     128       \n"," ormalization)                                                   \n","                                                                 \n"," max_pooling2d (MaxPooling2D  (None, 127, 127, 32)     0         \n"," )                                                               \n","                                                                 \n"," conv2d_1 (Conv2D)           (None, 125, 125, 64)      18496     \n","                                                                 \n"," batch_normalization_1 (Batc  (None, 125, 125, 64)     256       \n"," hNormalization)                                                 \n","                                                                 \n"," max_pooling2d_1 (MaxPooling  (None, 62, 62, 64)       0         \n"," 2D)                                                             \n","                                                                 \n"," conv2d_2 (Conv2D)           (None, 60, 60, 128)       73856     \n","                                                                 \n"," batch_normalization_2 (Batc  (None, 60, 60, 128)      512       \n"," hNormalization)                                                 \n","                                                                 \n"," max_pooling2d_2 (MaxPooling  (None, 30, 30, 128)      0         \n"," 2D)                                                             \n","                                                                 \n"," flatten (Flatten)           (None, 115200)            0         \n","                                                                 \n"," dense (Dense)               (None, 128)               14745728  \n","                                                                 \n"," dropout (Dropout)           (None, 128)               0         \n","                                                                 \n"," dense_1 (Dense)             (None, 64)                8256      \n","                                                                 \n"," dropout_1 (Dropout)         (None, 64)                0         \n","                                                                 \n"," dense_2 (Dense)             (None, 3)                 195       \n","                                                                 \n","=================================================================\n","Total params: 14,848,323\n","Trainable params: 14,847,875\n","Non-trainable params: 448\n","_________________________________________________________________\n"]}]},{"cell_type":"code","source":["model.compile(optimizer='adam',loss='categorical_cro
…
